…
[2024-06-08 16:43:27] Running on device cuda
[2024-06-08 16:43:29] AdamW (
[2024-06-08 16:43:29] Parameter Group 0
[2024-06-08 16:43:29]     amsgrad: False
[2024-06-08 16:43:29]     betas: (0.9, 0.999)
[2024-06-08 16:43:29]     capturable: False
[2024-06-08 16:43:29]     differentiable: False
[2024-06-08 16:43:29]     eps: 1e-08
[2024-06-08 16:43:29]     foreach: None
[2024-06-08 16:43:29]     fused: None
[2024-06-08 16:43:29]     lr: 0.001
[2024-06-08 16:43:29]     maximize: False
[2024-06-08 16:43:29]     weight_decay: 0.01
[2024-06-08 16:43:29] )
[2024-06-08 16:43:29] Crnn2(
[2024-06-08 16:43:29]   (bn0): BatchNorm2d(64, eps=1e-05, momentum=0.1, affine=True, track_running_stats=True)
[2024-06-08 16:43:29]   (bn1): BatchNorm2d(16, eps=1e-05, momentum=0.1, affine=True, track_running_stats=True)
[2024-06-08 16:43:29]   (bn2): BatchNorm2d(32, eps=1e-05, momentum=0.1, affine=True, track_running_stats=True)
[2024-06-08 16:43:29]   (bn3): BatchNorm2d(64, eps=1e-05, momentum=0.1, affine=True, track_running_stats=True)
[2024-06-08 16:43:29]   (bn4): BatchNorm2d(128, eps=1e-05, momentum=0.1, affine=True, track_running_stats=True)
[2024-06-08 16:43:29]   (bn5): BatchNorm2d(256, eps=1e-05, momentum=0.1, affine=True, track_running_stats=True)
[2024-06-08 16:43:29]   (conv1): Conv2d(1, 16, kernel_size=(3, 3), stride=(1, 1), padding=(1, 1), bias=False)
[2024-06-08 16:43:29]   (conv2): Conv2d(16, 32, kernel_size=(3, 3), stride=(1, 1), padding=(1, 1), bias=False)
[2024-06-08 16:43:29]   (conv3): Conv2d(32, 64, kernel_size=(3, 3), stride=(1, 1), padding=(1, 1), bias=False)
[2024-06-08 16:43:29]   (conv4): Conv2d(64, 128, kernel_size=(3, 3), stride=(1, 1), padding=(1, 1), bias=False)
[2024-06-08 16:43:29]   (conv5): Conv2d(128, 256, kernel_size=(3, 3), stride=(1, 1), padding=(1, 1), bias=False)
[2024-06-08 16:43:29]   (bigru): GRU(512, 128, batch_first=True, bidirectional=True)
[2024-06-08 16:43:29]   (fc): Linear(in_features=256, out_features=10, bias=True)
[2024-06-08 16:43:29]   (relu): ReLU()
[2024-06-08 16:43:29] )
[2024-06-08 16:43:35] Epoch 1   training_loss: 0.35  val_loss: 0.40  precision: 0.13  recall: 0.03  f1: 0.04
[2024-06-08 16:43:37] Epoch 2   training_loss: 0.29  val_loss: 0.29  precision: 0.28  recall: 0.14  f1: 0.18
[2024-06-08 16:43:39] Epoch 3   training_loss: 0.24  val_loss: 0.25  precision: 0.52  recall: 0.24  f1: 0.29
…
