…
[2024-06-08 16:55:36] Running on device cuda
[2024-06-08 16:55:37] AdamW (
[2024-06-08 16:55:37] Parameter Group 0
[2024-06-08 16:55:37]     amsgrad: False
[2024-06-08 16:55:37]     betas: (0.9, 0.999)
[2024-06-08 16:55:37]     capturable: False
[2024-06-08 16:55:37]     differentiable: False
[2024-06-08 16:55:37]     eps: 1e-08
[2024-06-08 16:55:37]     foreach: None
[2024-06-08 16:55:37]     fused: None
[2024-06-08 16:55:37]     lr: 0.001
[2024-06-08 16:55:37]     maximize: False
[2024-06-08 16:55:37]     weight_decay: 0.01
[2024-06-08 16:55:37] )
[2024-06-08 16:55:37] Crnn3(
[2024-06-08 16:55:37]   (bn0): BatchNorm2d(64, eps=1e-05, momentum=0.1, affine=True, track_running_stats=True)
[2024-06-08 16:55:37]   (bn1): BatchNorm2d(16, eps=1e-05, momentum=0.1, affine=True, track_running_stats=True)
[2024-06-08 16:55:37]   (bn2): BatchNorm2d(32, eps=1e-05, momentum=0.1, affine=True, track_running_stats=True)
[2024-06-08 16:55:37]   (bn3): BatchNorm2d(64, eps=1e-05, momentum=0.1, affine=True, track_running_stats=True)
[2024-06-08 16:55:37]   (bn4): BatchNorm2d(128, eps=1e-05, momentum=0.1, affine=True, track_running_stats=True)
[2024-06-08 16:55:37]   (bn5): BatchNorm2d(256, eps=1e-05, momentum=0.1, affine=True, track_running_stats=True)
[2024-06-08 16:55:37]   (bn6): BatchNorm2d(512, eps=1e-05, momentum=0.1, affine=True, track_running_stats=True)
[2024-06-08 16:55:37]   (conv1): Conv2d(1, 16, kernel_size=(3, 3), stride=(1, 1), padding=(1, 1), bias=False)
[2024-06-08 16:55:37]   (conv2): Conv2d(16, 32, kernel_size=(3, 3), stride=(1, 1), padding=(1, 1), bias=False)
[2024-06-08 16:55:37]   (conv3): Conv2d(32, 64, kernel_size=(3, 3), stride=(1, 1), padding=(1, 1), bias=False)
[2024-06-08 16:55:37]   (conv4): Conv2d(64, 128, kernel_size=(3, 3), stride=(1, 1), padding=(1, 1), bias=False)
[2024-06-08 16:55:37]   (conv5): Conv2d(128, 256, kernel_size=(3, 3), stride=(1, 1), padding=(1, 1), bias=False)
[2024-06-08 16:55:37]   (conv6): Conv2d(256, 512, kernel_size=(3, 3), stride=(1, 1), padding=(1, 1), bias=False)
[2024-06-08 16:55:37]   (bigru): GRU(512, 128, batch_first=True, bidirectional=True)
[2024-06-08 16:55:37]   (fc): Linear(in_features=256, out_features=10, bias=True)
[2024-06-08 16:55:37]   (relu): ReLU()
[2024-06-08 16:55:37] )
[2024-06-08 16:55:40] Epoch 1   training_loss: 0.35  val_loss: 0.46  precision: 0.00  recall: 0.00  f1: 0.00
[2024-06-08 16:55:43] Epoch 2   training_loss: 0.27  val_loss: 0.31  precision: 0.40  recall: 0.21  f1: 0.24
[2024-06-08 16:55:46] Epoch 3   training_loss: 0.25  val_loss: 0.27  precision: 0.58  recall: 0.28  f1: 0.31
…
