…
[2024-06-08 16:55:36] Running on device cuda
[2024-06-08 16:55:37] AdamW (
[2024-06-08 16:55:37] Parameter Group 0
[2024-06-08 16:55:37]     amsgrad: False
[2024-06-08 16:55:37]     betas: (0.9, 0.999)
[2024-06-08 16:55:37]     capturable: False
[2024-06-08 16:55:37]     differentiable: False
[2024-06-08 16:55:37]     eps: 1e-08
[2024-06-08 16:55:37]     foreach: None
[2024-06-08 16:55:37]     fused: None
[2024-06-08 16:55:37]     lr: 0.001
[2024-06-08 16:55:37]     maximize: False
[2024-06-08 16:55:37]     weight_decay: 0.01
[2024-06-08 16:55:37] )
[2024-06-08 16:55:37] Crnn3(
[2024-06-08 16:55:37]   (bn0): BatchNorm2d(64, eps=1e-05, momentum=0.1, affine=True, track_running_stats=True)
[2024-06-08 16:55:37]   (bn1): BatchNorm2d(16, eps=1e-05, momentum=0.1, affine=True, track_running_stats=True)
[2024-06-08 16:55:37]   (bn2): BatchNorm2d(32, eps=1e-05, momentum=0.1, affine=True, track_running_stats=True)
[2024-06-08 16:55:37]   (bn3): BatchNorm2d(64, eps=1e-05, momentum=0.1, affine=True, track_running_stats=True)
[2024-06-08 16:55:37]   (bn4): BatchNorm2d(128, eps=1e-05, momentum=0.1, affine=True, track_running_stats=True)
[2024-06-08 16:55:37]   (bn5): BatchNorm2d(256, eps=1e-05, momentum=0.1, affine=True, track_running_stats=True)
[2024-06-08 16:55:37]   (bn6): BatchNorm2d(512, eps=1e-05, momentum=0.1, affine=True, track_running_stats=True)
[2024-06-08 16:55:37]   (conv1): Conv2d(1, 16, kernel_size=(3, 3), stride=(1, 1), padding=(1, 1), bias=False)
[2024-06-08 16:55:37]   (conv2): Conv2d(16, 32, kernel_size=(3, 3), stride=(1, 1), padding=(1, 1), bias=False)
[2024-06-08 16:55:37]   (conv3): Conv2d(32, 64, kernel_size=(3, 3), stride=(1, 1), padding=(1, 1), bias=False)
[2024-06-08 16:55:37]   (conv4): Conv2d(64, 128, kernel_size=(3, 3), stride=(1, 1), padding=(1, 1), bias=False)
[2024-06-08 16:55:37]   (conv5): Conv2d(128, 256, kernel_size=(3, 3), stride=(1, 1), padding=(1, 1), bias=False)
[2024-06-08 16:55:37]   (conv6): Conv2d(256, 512, kernel_size=(3, 3), stride=(1, 1), padding=(1, 1), bias=False)
[2024-06-08 16:55:37]   (bigru): GRU(512, 128, batch_first=True, bidirectional=True)
[2024-06-08 16:55:37]   (fc): Linear(in_features=256, out_features=10, bias=True)
[2024-06-08 16:55:37]   (relu): ReLU()
[2024-06-08 16:55:37] )
  0%|          | 0/23 [00:00<?, ?batch/s]  4%|▍         | 1/23 [00:00<00:19,  1.14batch/s]  9%|▊         | 2/23 [00:00<00:08,  2.36batch/s] 13%|█▎        | 3/23 [00:01<00:05,  3.62batch/s] 22%|██▏       | 5/23 [00:01<00:03,  5.68batch/s] 30%|███       | 7/23 [00:01<00:02,  7.09batch/s]
…
