…
[2024-06-08 16:46:50] Running on device cuda
[2024-06-08 16:46:51] AdamW (
[2024-06-08 16:46:51] Parameter Group 0
[2024-06-08 16:46:51]     amsgrad: False
[2024-06-08 16:46:51]     betas: (0.9, 0.999)
[2024-06-08 16:46:51]     capturable: False
[2024-06-08 16:46:51]     differentiable: False
[2024-06-08 16:46:51]     eps: 1e-08
[2024-06-08 16:46:51]     foreach: None
[2024-06-08 16:46:51]     fused: None
[2024-06-08 16:46:51]     lr: 0.001
[2024-06-08 16:46:51]     maximize: False
[2024-06-08 16:46:51]     weight_decay: 0.01
[2024-06-08 16:46:51] )
[2024-06-08 16:46:51] Crnn1(
[2024-06-08 16:46:51]   (bn0): BatchNorm2d(64, eps=1e-05, momentum=0.1, affine=True, track_running_stats=True)
[2024-06-08 16:46:51]   (bn1): BatchNorm2d(16, eps=1e-05, momentum=0.1, affine=True, track_running_stats=True)
[2024-06-08 16:46:51]   (bn2): BatchNorm2d(32, eps=1e-05, momentum=0.1, affine=True, track_running_stats=True)
[2024-06-08 16:46:51]   (bn3): BatchNorm2d(64, eps=1e-05, momentum=0.1, affine=True, track_running_stats=True)
[2024-06-08 16:46:51]   (bn4): BatchNorm2d(128, eps=1e-05, momentum=0.1, affine=True, track_running_stats=True)
[2024-06-08 16:46:51]   (conv1): Conv2d(1, 16, kernel_size=(3, 3), stride=(1, 1), padding=(1, 1), bias=False)
[2024-06-08 16:46:51]   (conv2): Conv2d(16, 32, kernel_size=(3, 3), stride=(1, 1), padding=(1, 1), bias=False)
[2024-06-08 16:46:51]   (conv3): Conv2d(32, 64, kernel_size=(3, 3), stride=(1, 1), padding=(1, 1), bias=False)
[2024-06-08 16:46:51]   (conv4): Conv2d(64, 128, kernel_size=(3, 3), stride=(1, 1), padding=(1, 1), bias=False)
[2024-06-08 16:46:51]   (bigru): GRU(512, 128, batch_first=True, bidirectional=True)
[2024-06-08 16:46:51]   (fc): Linear(in_features=256, out_features=10, bias=True)
[2024-06-08 16:46:51]   (relu): ReLU()
[2024-06-08 16:46:51] )
  0%|          | 0/23 [00:00<?, ?batch/s]  4%|▍         | 1/23 [00:00<00:14,  1.53batch/s] 13%|█▎        | 3/23 [00:00<00:04,  4.65batch/s] 22%|██▏       | 5/23 [00:00<00:02,  7.42batch/s] 30%|███       | 7/23 [00:01<00:01,  9.77batch/s] 39%|███▉      | 9/23 [00:01<00:01, 11.71batch/s]
…
