…
[2024-06-08 16:43:27] Running on device cuda
[2024-06-08 16:43:29] AdamW (
[2024-06-08 16:43:29] Parameter Group 0
[2024-06-08 16:43:29]     amsgrad: False
[2024-06-08 16:43:29]     betas: (0.9, 0.999)
[2024-06-08 16:43:29]     capturable: False
[2024-06-08 16:43:29]     differentiable: False
[2024-06-08 16:43:29]     eps: 1e-08
[2024-06-08 16:43:29]     foreach: None
[2024-06-08 16:43:29]     fused: None
[2024-06-08 16:43:29]     lr: 0.001
[2024-06-08 16:43:29]     maximize: False
[2024-06-08 16:43:29]     weight_decay: 0.01
[2024-06-08 16:43:29] )
[2024-06-08 16:43:29] Crnn2(
[2024-06-08 16:43:29]   (bn0): BatchNorm2d(64, eps=1e-05, momentum=0.1, affine=True, track_running_stats=True)
[2024-06-08 16:43:29]   (bn1): BatchNorm2d(16, eps=1e-05, momentum=0.1, affine=True, track_running_stats=True)
[2024-06-08 16:43:29]   (bn2): BatchNorm2d(32, eps=1e-05, momentum=0.1, affine=True, track_running_stats=True)
[2024-06-08 16:43:29]   (bn3): BatchNorm2d(64, eps=1e-05, momentum=0.1, affine=True, track_running_stats=True)
[2024-06-08 16:43:29]   (bn4): BatchNorm2d(128, eps=1e-05, momentum=0.1, affine=True, track_running_stats=True)
[2024-06-08 16:43:29]   (bn5): BatchNorm2d(256, eps=1e-05, momentum=0.1, affine=True, track_running_stats=True)
[2024-06-08 16:43:29]   (conv1): Conv2d(1, 16, kernel_size=(3, 3), stride=(1, 1), padding=(1, 1), bias=False)
[2024-06-08 16:43:29]   (conv2): Conv2d(16, 32, kernel_size=(3, 3), stride=(1, 1), padding=(1, 1), bias=False)
[2024-06-08 16:43:29]   (conv3): Conv2d(32, 64, kernel_size=(3, 3), stride=(1, 1), padding=(1, 1), bias=False)
[2024-06-08 16:43:29]   (conv4): Conv2d(64, 128, kernel_size=(3, 3), stride=(1, 1), padding=(1, 1), bias=False)
[2024-06-08 16:43:29]   (conv5): Conv2d(128, 256, kernel_size=(3, 3), stride=(1, 1), padding=(1, 1), bias=False)
[2024-06-08 16:43:29]   (bigru): GRU(512, 128, batch_first=True, bidirectional=True)
[2024-06-08 16:43:29]   (fc): Linear(in_features=256, out_features=10, bias=True)
[2024-06-08 16:43:29]   (relu): ReLU()
[2024-06-08 16:43:29] )
  0%|          | 0/23 [00:00<?, ?batch/s]  4%|▍         | 1/23 [00:02<01:03,  2.88s/batch] 13%|█▎        | 3/23 [00:03<00:16,  1.25batch/s] 22%|██▏       | 5/23 [00:03<00:07,  2.34batch/s] 30%|███       | 7/23 [00:03<00:04,  3.51batch/s] 39%|███▉      | 9/23 [00:03<00:02,  4.72batch/s]
…
