…
[2024-06-08 16:46:50] Running on device cuda
[2024-06-08 16:46:51] AdamW (
[2024-06-08 16:46:51] Parameter Group 0
[2024-06-08 16:46:51]     amsgrad: False
[2024-06-08 16:46:51]     betas: (0.9, 0.999)
[2024-06-08 16:46:51]     capturable: False
[2024-06-08 16:46:51]     differentiable: False
[2024-06-08 16:46:51]     eps: 1e-08
[2024-06-08 16:46:51]     foreach: None
[2024-06-08 16:46:51]     fused: None
[2024-06-08 16:46:51]     lr: 0.001
[2024-06-08 16:46:51]     maximize: False
[2024-06-08 16:46:51]     weight_decay: 0.01
[2024-06-08 16:46:51] )
[2024-06-08 16:46:51] Crnn1(
[2024-06-08 16:46:51]   (bn0): BatchNorm2d(64, eps=1e-05, momentum=0.1, affine=True, track_running_stats=True)
[2024-06-08 16:46:51]   (bn1): BatchNorm2d(16, eps=1e-05, momentum=0.1, affine=True, track_running_stats=True)
[2024-06-08 16:46:51]   (bn2): BatchNorm2d(32, eps=1e-05, momentum=0.1, affine=True, track_running_stats=True)
[2024-06-08 16:46:51]   (bn3): BatchNorm2d(64, eps=1e-05, momentum=0.1, affine=True, track_running_stats=True)
[2024-06-08 16:46:51]   (bn4): BatchNorm2d(128, eps=1e-05, momentum=0.1, affine=True, track_running_stats=True)
[2024-06-08 16:46:51]   (conv1): Conv2d(1, 16, kernel_size=(3, 3), stride=(1, 1), padding=(1, 1), bias=False)
[2024-06-08 16:46:51]   (conv2): Conv2d(16, 32, kernel_size=(3, 3), stride=(1, 1), padding=(1, 1), bias=False)
[2024-06-08 16:46:51]   (conv3): Conv2d(32, 64, kernel_size=(3, 3), stride=(1, 1), padding=(1, 1), bias=False)
[2024-06-08 16:46:51]   (conv4): Conv2d(64, 128, kernel_size=(3, 3), stride=(1, 1), padding=(1, 1), bias=False)
[2024-06-08 16:46:51]   (bigru): GRU(512, 128, batch_first=True, bidirectional=True)
[2024-06-08 16:46:51]   (fc): Linear(in_features=256, out_features=10, bias=True)
[2024-06-08 16:46:51]   (relu): ReLU()
[2024-06-08 16:46:51] )
[2024-06-08 16:46:54] Epoch 1   training_loss: 0.38  val_loss: 0.36  precision: 0.09  recall: 0.04  f1: 0.06
[2024-06-08 16:46:56] Epoch 2   training_loss: 0.29  val_loss: 0.28  precision: 0.30  recall: 0.15  f1: 0.19
[2024-06-08 16:46:58] Epoch 3   training_loss: 0.27  val_loss: 0.26  precision: 0.44  recall: 0.26  f1: 0.29
…
